checkpoint.pth (torch_old, 28417 bytes, 6 tensors)

fc1.weight f4 [64, 37]
000000 32 0e ca 3d 96 e5 17 3d bf 28 ba 3d d7 fd 8a 3d
       0.09865989 0.037084185 0.09089803 0.06786697
000010 71 c8 9e bd ab e7 20 3d 96 de b1 3c 79 53 e8 3c
       -0.07753075 0.039283436 0.021712583 0.028360115
000020 ff 61 b5 3d c8 eb 48 3c d1 64 70 3b 3d f1 2c 3c
       0.08856582 0.012263246 0.0036681185 0.010555563
000030 3f c3 00 3c f1 4d 29 3d e9 fa f4 3c 27 d5 be 3e
       0.00785905 0.041334096 0.0299048 0.37271997
000040 44 7b ba be 3e ab 87 be 2e 46 47 be 07 71 c7 bf
       -0.3642217 -0.26497835 -0.19460365 -1.5581368
000050 ee 65 9e bd 21 c9 95 bc 0b 56 0d bd 04 60 5a bd
       -0.07734285 -0.018284382 -0.034505885 -0.053314224
000060 a4 f9 44 3d c5 5c 46 3d 0b a8 c5 3c c4 5f 2a 3d
       0.04808964 0.048428316 0.02412798 0.041595235
000070 46 76 23 3d b1 af 5c bd 54 e8 44 3d 04 83 a0 3d
       0.039907716 -0.05387849 0.048073128 0.07837489
000080 f5 34 c7 3d 1f 46 10 3e 70 00 4b 3d d7 b3 ac bb
       0.097268976 0.14089249 0.049560964 -0.005270462
000090 74 78 ca bb 01 6f 0e be 6f bd cb bc a2 85 eb bd
       -0.00617891 -0.13909532 -0.024870602 -0.11500098
0000a0 1a 38 de bd be d0 27 bd 76 d7 87 bd d5 2b 99 3c
       -0.10850544 -0.040970556 -0.06632893 0.018697659
0000b0 5b 32 5d 3b 2f c7 3a 3e 17 6c ce 3e cb fe b2 bd
       0.0033751938 0.18240045 0.4031684 -0.08740004
0000c0 a8 8c 08 be bd e5 3f bc e4 22 ea bb de 74 09 3e
       -0.13334906 -0.011712489 -0.0071452726 0.13423488
0000d0 2b 6c c7 3d c3 49 62 3d ff af 06 bd e8 5f 3b bd
       0.09737428 0.055246126 -0.032882687 -0.04574576
0000e0 c5 c9 1e 3d 37 e1 84 3d 8a 88 90 3d b7 6c 84 3d
       0.03876664 0.06488269 0.07057293 0.06466048
0000f0 fa 56 07 3e ad be a0 3e 3e 49 9f bc 6f 2c 3d be
       0.13216773 0.31395474 -0.019444104 -0.18473981
000100 36 9d 38 be cf 25 ef 3d 6f f1 51 3e 13 20 b6 3b
       -0.18028721 0.11677133 0.20502256 0.0055580228
000110 1e d3 aa be ca fc 53 be 53 22 21 3e 00 b8 2d 3f
       -0.33364195 -0.207019 0.1573575 0.67858887
000120 67 2d dc 3c 1d 17 89 3c 2c 18 d6 3c e7 36 3d bd
       0.026877118 0.016734654 0.026134573 -0.046194937
000130 d4 7f 1d be 5d 3c 9d bd f0 7e c4 3d d2 2b 04 3d
       -0.15380794 -0.07677529 0.09594524 0.032268353
000140 3f 47 1b 3c 58 50 af 3d ef de 8f be 7c c7 11 bf
       0.009477436 0.08560246 -0.28099772 -0.56945014
000150 c7 70 02 be 65 33 b7 bd d1 41 9e bd aa f8 d0 bd
       -0.12738334 -0.089453496 -0.07727397 -0.10203679
000160 d5 ac 56 bd 52 5d 58 be 21 d0 37 3e ab c4 d5 3d
       -0.05241092 -0.21129349 0.17950489 0.10437902
000170 7f 00 2d 3d ce 13 0a 3e 6f 78 ff bc 1a 0f 04 be
       0.0422368 0.13484117 -0.031185357 -0.12896386
000180 ef 36 ef 3c 67 a0 ff bd de 8f 88 3d cc b8 83 ba
       0.029200999 -0.12481766 0.066680655 -0.0010049581
000190 98 9a d9 bd fc 18 10 3d 6e d5 97 3c d4 93 a0 3e
       -0.106251895 0.035180077 0.018534388 0.31362784
0001a0 ef 1a 38 be 07 55 5b 3d 0e 77 14 3e e1 da b0 bd
       -0.17979024 0.053547885 0.14498541 -0.08635498
0001b0 e0 49 e8 bd 9c 35 63 bd 23 ac 94 3c bd e0 22 3e
       -0.113422155 -0.055471048 0.018148487 0.15906043
0001c0 53 d0 d7 bc 65 37 2c 3d a0 a5 88 3d 67 8d 10 3e
       -0.026344454 0.042045016 0.066722155 0.1411644
0001d0 a4 e5 63 3e 4b db c5 bd 44 39 c2 3d e9 da 81 be
       0.2225557 -0.096609674 0.09483579 -0.25362328
0001e0 1f 6a 19 be 30 16 c2 3d de 0e 77 3d 2a f3 6e 3d
       -0.14981888 0.09476888 0.060316913 0.058337368
0001f0 47 5f df bd 00 79 b4 be 40 b4 34 3d 90 e2 c4 bd
       -0.109068446 -0.35248566 0.044117212 -0.09613526
000200 7c f7 b6 3d 03 4a 10 be bc 6a 1c 3e 56 21 b9 bd
       0.08933923 -0.14090733 0.15275091 -0.090395615
000210 21 2e 11 bd f0 49 66 3c e7 78 90 3d 90 a5 67 3d
       -0.035444383 0.014055714 0.0705431 0.056554377
000220 39 dc 23 be 4e 78 7e bd 39 d1 b2 3d 3e cd 02 be
       -0.16001977 -0.06212645 0.08731312 -0.12773606
000230 78 0a e4 bd 4a 49 33 be 04 1c bf be 53 e8 07 be
       -0.11134809 -0.17508426 -0.37326062 -0.13272218
000240 2c 82 4f 3e 3c 6c 46 bb 5f e4 0c bd 0a 5d 81 bd
       0.202645 -0.0030276915 -0.03439748 -0.06316574
000250 88 dc c7 3d e4 86 a5 3d 87 98 22 bd bf df ba 3d
       0.0975886 0.08082369 -0.039696243 0.091247074
000260 1e d5 17 3e 27 db a6 bd 1f 46 45 3e 10 54 ac 3e
       0.14827392 -0.08147269 0.1926503 0.33657885
000270 5f f8 28 3e 68 ed 68 3f 96 03 15 3c ad 2b c8 bd
       0.16500996 0.90987253 0.009095093 -0.097739555
000280 a8 ef dd bd 95 29 b0 3d 44 d8 f7 3d e3 f7 da 3c
       -0.108367264 0.08601681 0.12101796 0.02672953
000290 a9 ba e5 3d a2 82 1c 3d de 40 bb bb 7d 9a e3 3c
       0.11217243 0.03821052 -0.00571452 0.027783627
0002a0 54 ec 2e 3e 6a e2 8c bd da 78 94 bb 10 47 99 3d
       0.1708234 -0.068791226 -0.004531008 0.07484257
0002b0 61 60 ae 3c da b2 71 3e fa 9c 88 3d e5 7e 56 bd
       0.021286191 0.23603383 0.06670566 -0.05236711
0002c0 e8 5e 66 be ae 24 94 be 5b 5b 81 3c c8 49 14 be
       -0.22497141 -0.28934234 0.015790632 -0.1448127
0002d0 a5 31 7b 3d 32 5c 05 3e e7 21 99 3d f2 24 26 3d
       0.06132664 0.13023451 0.074771695 0.040562578
0002e0 c5 05 5b 3d 58 e0 58 bc 05 89 15 3d 1d 87 45 3d
       0.0534723 -0.0132370815 0.036507625 0.048224557
0002f0 95 1b cb bd bb d6 fc bd 9c 0c 4f bd 16 b2 9a 3d
       -0.0991737 -0.12345644 -0.050549135 0.075534984
000300 6f 59 26 3e b4 0f 47 3e c6 c7 9b bd 80 69 11 3e
       0.16245054 0.19439584 -0.07606463 0.14200401
000310 ff c1 bd bc b3 35 d2 3d 72 11 4d bd 22 23 72 3e
       -0.023163794 0.102641486 -0.050065465 0.23646215
000320 1d c0 40 be eb f3 dd bd cf 12 cf 3d d8 28 95 bc
       -0.18823285 -0.10837539 0.10111009 -0.018207952
000330 8b 40 f4 bc 6c 8a f0 3d 35 16 c1 3d 3f 48 1f 3e
       -0.029815933 0.11745152 0.09428064 0.15554903
000340 7c 89 ee 3d 59 ef c2 bd f7 e4 b2 3c 94 63 4f bc
       0.11647317 -0.09518308 0.021837695 -0.012658019
000350 20 87 38 3e 83 ac 61 3d 3f 79 4e bd 89 bf 87 3e
       0.18020296 0.05509616 -0.050408598 0.26513317
000360 20 7c 63 be 28 95 fa bc ca 94 0d be 23 bd 88 3e
       -0.22215319 -0.030588701 -0.1382629 0.267068
000370 74 26 a7 bc 2b 52 45 bc c4 c1 47 bd cb 1e 64 bd
       -0.020404078 -0.012043516 -0.048768774 -0.05569343
000380 16 f0 c5 bc 16 15 31 bd 62 b8 0f be 84 4a ab 3d
       -0.024162333 -0.043233 -0.1403518 0.08363822
000390 58 11 3b 3d 6a 53 73 3e 2e b2 17 3e 6a 78 69 bd
       0.045670837 0.23762289 0.14814064 -0.0569996
0003a0 f9 cb a3 bd 96 12 ae bd d0 c2 ad 3c 47 d2 75 bd
       -0.07997889 -0.08499639 0.021211058 -0.06001499
0003b0 3f e5 53 3e 0d b2 e0 3d be 87 29 be 47 c0 8a 3b
       0.20692919 0.109714605 -0.16555688 0.004234347
0003c0 ed f9 2b 3e ae 67 4a 3e 91 5f 11 be 22 8b 8b bc
       0.16794558 0.19766113 -0.14196612 -0.017034117
0003d0 f1 1c 16 3d 64 49 95 bd 12 e2 39 3d 15 5b 1d be
       0.036648694 -0.07289389 0.045381613 -0.15366776
0003e0 f5 0c f6 bd ce 35 c5 3c e6 06 0f 3e d7 bb a3 3e
       -0.1201419 0.024073508 0.13967475 0.31979248
0003f0 5a 52 16 be c9 3b 08 bb 2d 0c 3f 3e 28 85 84 be
       -0.14679852 -0.0020787588 0.18656988 -0.2588284

fc1.bias f4 [64]
000000 7c e0 87 bd b0 4f 90 bc e3 1a 67 3d 1b 40 9a 3d
       -0.06634614 -0.017616123 0.056422126 0.075317584
000010 e8 ed 94 3d 29 e3 1b be 51 80 bb 3d d5 59 4d bd
       0.072719395 -0.15223373 0.09155334 -0.0501345
000020 2c 1f 1f 3d 5a 3e 22 3d 33 fe 62 3e a6 3a 20 be
       0.038848087 0.039610244 0.22167282 -0.15647373
000030 90 3d 3a be ca 20 01 3e 28 5f e8 3d e2 b4 b3 3d
       -0.18187547 0.12610164 0.113462746 0.08774735
000040 50 23 75 3d 84 a7 58 bd 61 3d 13 bd d3 bc e3 3c
       0.05984813 -0.05289413 -0.035947207 0.0278
000050 33 d5 48 be 46 1c 49 be 26 91 d1 bd e7 9c ef 3d
       -0.19612579 -0.19639692 -0.10232763 0.116998486
000060 ed 07 45 bd f1 1e b3 bb 77 1c 57 bc 89 3b 1e 3e
       -0.04810326 -0.005466335 -0.013129345 0.15452398
000070 c6 59 88 bd d6 9d 3f 3e 23 95 05 be a3 ad 68 3b
       -0.06657748 0.18712553 -0.13045172 0.0035503886
000080 40 45 64 bd 06 c1 90 bd b3 c2 ac 3c 4e cf 1b 3d
       -0.055730104 -0.07068066 0.021088934 0.038039498
000090 7b a5 8d 3d 99 68 78 be da 98 68 3d 7b c0 7f 3d
       0.069163285 -0.24258651 0.056786396 0.062439423
0000a0 ff 6c 3f bd 8b 5f 0b be 43 74 fb bd 55 e9 da bd
       -0.046734806 -0.13610666 -0.122780345 -0.10689036
0000b0 b2 ca 1a 3e b2 25 ff bd 9b 47 47 3e b9 6a df 3c
       0.15116385 -0.12458362 0.19460909 0.027272569
0000c0 50 c0 52 3e 05 f9 2a bd 46 bd 14 be d6 c0 c5 3d
       0.20581174 -0.04174139 -0.14525327 0.09655921
0000d0 bb d7 c8 bd 7e ca 80 bc 14 7f 7e 3d 81 77 4c 3d
       -0.09806772 -0.015721556 0.06213291 0.049918655
0000e0 64 fc 07 3e 5f f6 fe bd 0a 30 50 3e 22 1d b1 3d
       0.13279873 -0.12449335 0.20330825 0.08648135
0000f0 c0 68 e9 bc 60 01 56 bd 90 7a 98 bd 97 5d d9 3d
       -0.028492332 -0.052247405 -0.07445252 0.10613554

fc2.weight f4 [64, 64]
000000 98 fc 1e be a7 99 0a 3e b0 cd f2 bd 28 0a ab 3d
       -0.15526044 0.13535176 -0.11855638 0.083515465
000010 3c 8a 28 3e 8a 4b da 3d 43 0b f8 3c f7 30 a0 bd
       0.16458982 0.10658939 0.030278808 -0.07821839
000020 89 87 aa 3d 1d 7d 73 bc 5f 67 ff 3d fc b4 e4 bd
       0.083266325 -0.014861372 0.12470888 -0.111673325
000030 09 2e 83 be 73 74 6f be 10 f8 af bd 47 9d 6f 3d
       -0.2562106 -0.23384266 -0.08592236 0.0584996
000040 4a ae 81 bc 66 73 13 be c6 e4 a0 bd d0 a3 02 be
       -0.015830178 -0.1439949 -0.07856135 -0.12757802
000050 b9 a2 b6 bd 2a dd a7 3e 96 14 43 3e 64 82 15 bb
       -0.08917756 0.32785922 0.19050822 -0.0022813315
000060 a5 21 bd bd 10 24 fe 3a 21 c3 27 be 0c 90 b6 3d
       -0.09234933 0.001938941 -0.1638303 0.089141935
000070 ac 96 b7 bd ef a1 f0 b9 16 b3 95 3c eb 8b 00 3e
       -0.08964285 -0.00045897017 0.018273871 0.12553374
000080 0a 36 11 3e a3 89 cf bd 3d de cb bd a1 41 1e 3c
       0.1418077 -0.10133674 -0.09954498 0.009659202
000090 43 e4 c5 3d 09 6b 7e be 32 1f e7 3c 21 df 05 be
       0.09662678 -0.24845518 0.028213117 -0.13073398
0000a0 70 5e 9b 3d 0d da 01 3d 74 eb cf 3d f3 40 30 3e
       0.07586372 0.03170209 0.10152331 0.17212276
0000b0 d5 97 e0 bd e3 7d 09 3e d7 10 08 be 7e 46 b3 39
       -0.1096646 0.13426928 -0.13287674 0.0003419406
0000c0 b9 28 2c be 5e 5c 54 3d 57 74 cb 3d 99 34 62 3d
       -0.1681241 0.0518459 0.099342994 0.055225942
0000d0 63 a2 c8 3d 8d 52 75 bd 59 e5 b8 3d 1a fe f5 3d
       0.09796598 -0.05989318 0.090281196 0.12011357
0000e0 96 ff 58 bd 66 ac a3 3d d5 90 1d be bf 44 b2 bd
       -0.05297812 0.07991867 -0.1538728 -0.087045185
0000f0 05 d7 0d be 00 fb 86 be be 4f 5a be 93 d8 1c bd
       -0.13851555 -0.26363373 -0.21319482 -0.03829248
000100 94 88 2f bf 33 9e fb bd 54 40 3b bd 7a 6c 55 bd
       -0.68567777 -0.122860335 -0.045715645 -0.052105404
000110 f6 80 34 bd bd af f4 3a 99 60 33 3c db fb 70 bd
       -0.0440683 0.0018668097 0.010948324 -0.058833938
000120 de 4d 51 be 6d 1a f8 3d ba 7a db bc f5 13 1d bc
       -0.2043986 0.12114415 -0.026791919 -0.009587278
000130 6f 11 76 3e a4 af eb 3d 2e b9 3e 3d 8c b8 d0 3c
       0.24030088 0.1150811 0.04656332 0.025478624
000140 37 0f 39 bc 32 39 9e 3e 4c ee 20 3e 26 37 c3 bc
       -0.011295131 0.30903012 0.15715903 -0.023830008
000150 9a 93 c8 3d 1b 8c 6e be 81 42 80 be 1d e3 af bd
       0.09793778 -0.23295633 -0.25050738 -0.0858824
000160 43 d1 8d 3d e2 88 78 3d 00 f4 20 be 20 0f d2 ba
       0.06924679 0.060677417 -0.15718079 -0.0016026236
000170 5d 0f 3e 3d a7 7b 75 be 84 aa 40 3d bc 8c 88 3d
       0.04640137 -0.23972951 0.047037616 0.06667468
000180 ce a7 2a 3e 4f 73 5f bd 57 b1 08 be 24 74 83 bd
       0.16665575 -0.054553326 -0.133489 -0.064186364
000190 fc 72 11 be bc fe 80 3b 10 f7 aa 3e 1f f3 d7 3b
       -0.1420402 0.0039366167 0.3339162 0.0065902616
0001a0 63 77 0a 3e c7 41 eb bc 24 12 e4 3d a9 7c 20 3d
       0.13522105 -0.028717889 0.111362725 0.039181385
0001b0 d2 c7 f4 bd 9a 4e a2 3d 0b ad e8 3d 15 c6 75 3d
       -0.11952175 0.07925148 0.1136113 0.06000336
0001c0 b2 f1 04 be a7 f5 fe 3d 04 61 b2 be e0 a1 69 bd
       -0.12982824 0.12449198 -0.34839642 -0.05703914
0001d0 ca fa 41 be 6f cc f6 bc d1 14 ab 3e 36 f3 3a be
       -0.18943325 -0.030126778 0.3341432 -0.1825684
0001e0 bd 31 5c bc d6 72 18 bd d9 0e 41 be 43 ef 05 bd
       -0.013439593 -0.03721889 -0.1885332 -0.03269888
0001f0 6a 3d 86 3c 0d 32 c5 3b bd 06 59 3e 02 39 e9 3c
       0.016386706 0.0060179294 0.21193977 0.028469566
000200 be 33 16 bd a5 b3 68 3d 00 f4 d0 3d aa b0 dd 3d
       -0.03667044 0.056811947 0.10202789 0.108247116
000210 a1 5c d3 bd 8c 35 7f bd 77 b3 9b 3d 63 11 57 3d
       -0.10320402 -0.062306926 0.076025896 0.052506816
000220 77 da 27 3d e3 46 8f bd dd 53 bf 3c 04 ab 4a 3d
       0.04097983 -0.069959424 0.023355419 0.0494795
000230 b0 28 56 be 74 96 8f bd c4 a5 b6 3d a5 ba 94 3d
       -0.20913959 -0.070111185 0.08918336 0.07262162
000240 6f a6 b6 3d 4b 24 10 3e 17 61 69 bd 30 21 38 bd
       0.089184634 0.14076345 -0.056977358 -0.044953525
000250 a5 27 26 bd ee 36 1f 3e 1e 0f 37 3e bb 3c 19 3e
       -0.04056515 0.15548298 0.1787686 0.14964573
000260 4f fe 38 3d 27 63 9a 3d 3a c0 4b 3c 86 7f 80 3d
       0.045164403 0.07538443 0.012435967 0.06274323
000270 f3 dc a3 be be 4e 0b be 6c af 67 3b 40 28 ee 3c
       -0.32004508 -0.13604257 0.0035352362 0.029071927
000280 fa c9 f7 3d 04 35 1f 3e 79 32 1e 3d 49 8f 51 bc
       0.12099071 0.15547568 0.038622353 -0.0127905095
000290 ce b4 4a 3d 73 15 76 bd 04 fa c1 3d f9 b0 34 be
       0.049488835 -0.06007905 0.09471515 -0.17645635
0002a0 d4 96 30 3d 7d 8c d5 3d 54 2b 67 bc 20 02 ec bd
       0.04311259 0.10427187 -0.014109451 -0.11523843
0002b0 4f bc e8 3d 5f 08 0d 3e 67 7a 20 bd d3 95 83 3d
       0.11364042 0.13772725 -0.039179232 0.06425061
0002c0 f4 e7 4f bc de 48 21 be 55 a8 2d be e2 3c f2 3d
       -0.012689579 -0.15750453 -0.16958745 0.11828019
0002d0 a2 59 5f be c1 a1 bb bd 7f f9 4a 3d 7c 68 3c be
       -0.21811536 -0.091617115 0.049554344 -0.18399233
0002e0 29 9d 8b 3d da 62 c6 bd c5 17 96 bd 1f 76 07 3e
       0.06817085 -0.09686823 -0.073287524 0.13228653
0002f0 86 b6 c8 bc fd 24 cb 3d a1 44 39 bd 47 e7 8b 3d
       -0.024501096 0.09919164 -0.045231465 0.06831222
000300 1b ae a9 3d c1 50 f8 3c 19 c4 61 bd 7e 3c 15 be
       0.08285161 0.030311944 -0.055118654 -0.14573857
000310 52 8f ad 39 47 bc 15 bd a1 22 8c 3d e5 e0 95 bd
       0.00033103913 -0.03655651 0.068425424 -0.07318286
000320 db 93 01 be d4 49 82 3d 7f f3 d6 3d d1 89 b9 bd
       -0.12654059 0.06361738 0.10495662 -0.090594895
000330 eb ea 0c 3d 9b cf 5b be b0 33 68 3d a7 8c c1 bd
       0.034403723 -0.21465914 0.056689918 -0.094506554
000340 4c 59 7a bd 32 73 fa 3b b6 85 1c bd 12 f0 34 3d
       -0.061120316 0.007643127 -0.038213454 0.04417426
000350 10 30 56 be 47 2a d4 bc bc 92 11 3e 65 3b c5 3b
       -0.20916772 -0.025899066 0.14216131 0.0060190433
000360 c6 c1 6c 3c 31 c0 b6 bd 61 c7 80 bd 06 50 02 3e
       0.014450496 -0.08923376 -0.062880285 0.12725839
000370 51 f7 09 3d 6c 2e 3e 3c 73 db e8 bd 7e 8f 71 3d
       0.033683125 0.0116077475 -0.113699816 0.058974735
000380 44 52 cc bd a0 ce ef 3d c1 97 27 3c 9d 76 c3 3d
       -0.099766284 0.117093325 0.010229052 0.09544108
000390 66 56 b9 3d a1 1e e7 3c 9c 24 89 bb 3d a1 d4 bd
       0.09049682 0.028212847 -0.0041852724 -0.10382316
0003a0 ba 21 a9 3e 0b 4e b7 3d 6e a2 f3 bc 7d dd cf 3d
       0.33033544 0.089504324 -0.029740538 0.101496674
0003b0 74 8c bc 3d 39 64 28 bd 04 f1 ae 3d 7d 92 8c bc
       0.09206477 -0.041111205 0.08542064 -0.017159695
0003c0 8e ab 9c 3d 58 dd be bd 6a f4 8a 3e cb 13 e0 3b
       0.07649909 -0.09319562 0.27139598 0.006838297
0003d0 05 09 a0 3d 11 a5 c3 3d 94 8e 30 3e cc 45 26 3c
       0.0781422 0.09552968 0.17241889 0.010148477
0003e0 f3 81 81 3d ec c6 26 bc 99 d4 e5 3d bc 3f 6d bc
       0.06323614 -0.010179263 0.112221904 -0.0144805275
0003f0 1c 93 95 bd a5 7d b6 3d e7 b6 df bc 4b f9 0b bd
       -0.073034495 0.089106835 -0.027308894 -0.03417329

fc2.bias f4 [64]
000000 f0 72 1a 3e 0c f7 de 3d 41 8f da bd 59 7f 23 3e
       0.15082908 0.10886964 -0.10671855 0.15966548
000010 6d b4 64 3e 3a e7 15 bd 97 9c 3b be ca fe 35 be
       0.22334452 -0.036597468 -0.18321453 -0.17772976
000020 f5 10 6b 3e a3 c8 95 bc ec 8e 59 3d 8a 2b 12 bd
       0.22955687 -0.018284148 0.053114817 -0.035686053
000030 db b4 31 3b 6b 87 44 3e 1e 5e 40 bd cb fd e9 bd
       0.0027115855 0.19192283 -0.046964757 -0.1142536
000040 4e 18 44 3e 76 61 5f 3e 02 c2 c6 bc b6 20 d3 bd
       0.19149897 0.21814522 -0.024262432 -0.103089735
000050 da 17 fb bd a4 94 40 bc 42 ac 6b 3c 55 36 21 3d
       -0.12260409 -0.011754189 0.014384331 0.039358456
000060 35 e5 3c 3e 41 b9 45 3d 93 28 85 3d d2 9b b3 3d
       0.1844681 0.048272375 0.065018795 0.08769955
000070 57 13 10 3d 3e fa c9 3d 30 7e 5d 3d c2 42 42 bd
       0.035174694 0.09862183 0.05407542 -0.047426946
000080 b5 a0 64 bc 2d 81 f6 3d b3 83 95 3d 85 cc 52 bd
       -0.013954331 0.12036357 0.0730051 -0.051464576
000090 41 3c 81 bc c7 f3 fc 3d 36 bb 7d bd 29 a8 84 3d
       -0.015775802 0.12351184 -0.061946116 0.064773865
0000a0 e3 65 4d 3d 9d 25 4d 3d 6d a6 93 3d 7f 16 21 3d
       0.050145995 0.0500847 0.072094776 0.039328095
0000b0 df 9d 02 3e 8b 99 4b 3e 95 6f 32 3b 44 3c cc 3d
       0.12755536 0.1988279 0.0027227153 0.09972432
0000c0 e0 14 48 3d ac 6b 07 be 82 2d 69 bd 15 00 6b bd
       0.048848033 -0.13224667 -0.056928165 -0.057373125
0000d0 97 ec f4 bc 6c de 67 3d 08 37 a7 3d 94 5b 50 bd
       -0.029897971 0.056608602 0.08164793 -0.050868586
0000e0 7e f7 3d bd d3 66 85 bc bb 6c 0f be 72 76 6e bd
       -0.046378605 -0.016284382 -0.14006321 -0.058218427
0000f0 b3 73 a2 bd 96 c5 12 3d d1 99 ae bc d5 09 b4 3d
       -0.07932224 0.035832964 -0.02131358 0.08790938

fc3.weight f4 [4, 64]
000000 f2 6e 1c 3e 0d 3d 22 3d 08 12 eb bc d7 75 f8 3d
       0.15276697 0.039609004 -0.028695121 0.12131851
000010 18 d8 1b 3e d2 eb 31 3d 38 b8 ff 3e b3 53 27 be
       0.15219152 0.043437786 0.49945235 -0.16340522
000020 8b 47 2a 3e 8f 5d e0 bd a8 ae ca 3d b2 d8 9e 3e
       0.16628854 -0.10955345 0.09896594 0.310247
000030 8c ed 87 bd e9 6d 30 3e c5 2c ec be c6 d6 96 3e
       -0.06637105 0.17229427 -0.46127906 0.29460734
000040 96 bd f8 3d fc 2e c1 3d b4 18 85 be 65 31 24 3e
       0.12145536 0.0943279 -0.2599541 0.16034468
000050 8e 45 cf bd 26 7c b9 3e 1c 06 9b bd 97 12 53 be
       -0.101206884 0.3622753 -0.07569525 -0.2061256
000060 bb 9c 26 3e cc 70 63 3d 96 3d e4 3d 83 4a 55 be
       0.16270725 0.055527493 0.11144559 -0.20829205
000070 27 49 ee bd cf 13 20 bf 3d f0 a4 3c 65 cc 64 3e
       -0.116350465 -0.62530226 0.020134086 0.22343595
000080 f8 49 00 3e f6 25 f8 3d 24 ef d1 3d 6d b6 8b 3e
       0.12528217 0.121166155 0.102506906 0.27287617
000090 37 59 43 3d 98 b9 ad bc 98 26 0f bc ba be ff 3d
       0.047692504 -0.021206662 -0.008737229 0.1248755
0000a0 41 3f b3 3d 5e 08 89 be b9 65 bd 3e 64 ac 00 3e
       0.08752299 -0.26764196 0.3699167 0.12565762
0000b0 48 c5 a3 bd a9 dd 93 3e 32 84 64 3e 2d d9 8c 3e
       -0.07996613 0.2888005 0.22316054 0.27509442
0000c0 8a c5 aa 3e af b5 c7 be 30 37 fc bd b5 72 11 3e
       0.33353835 -0.390058 -0.12315214 0.14203914
0000d0 32 c5 82 be b9 8e 9c be 8b e9 e0 3d 22 27 aa bc
       -0.25541073 -0.3057764 0.10982045 -0.020770613
0000e0 de d6 c7 3e 09 b5 1f 3e 14 5d b3 3e 88 34 10 be
       0.39031118 0.15596403 0.3503195 -0.14082539
0000f0 e4 6a 0e bf d5 a5 90 3c 89 73 1d be c3 29 97 3e
       -0.5563185 0.0176572 -0.15376104 0.2952405
000100 d8 a5 5b bd bd 4c a6 3d 50 3d 07 3d 31 eb dc 3d
       -0.053624958 0.081201054 0.033017457 0.10787047
000110 c1 a8 6d 3c d7 22 1d 3e 82 10 de be 4c f0 8e bd
       0.014505566 0.15345322 -0.4337197 -0.06979427
000120 31 f2 0b 3e 00 32 f7 3c 00 5f af 3d ed c0 9c 3e
       0.13666607 0.030175209 0.08563042 0.3061594
000130 2e 65 c9 3b 7b 88 90 3d 2c 3e 90 be 1a 59 0c 3e
       0.0061460948 0.070572816 -0.28172433 0.13705865
000140 25 01 e1 3c eb 61 02 3e b7 db 20 bd 11 67 4e 3e
       0.027466366 0.12732665 -0.039272036 0.20156504
000150 2a 5b 2e 3e 4e cd 77 3e e9 b6 12 bd 3a 60 7f 3e
       0.17026964 0.24199411 -0.035818968 0.24939051
000160 84 31 64 3e 55 66 33 3e 19 14 ee 3d 88 d7 3f 3d
       0.22284514 0.17519505 0.11624927 0.046836406
000170 57 c1 e8 bc 95 5b 0b bf 25 d3 36 3e e3 96 9b 3e
       -0.028412504 -0.5443662 0.17853983 0.30388555
000180 66 3b 1a 3e 14 9a 17 3e 79 23 a9 bc 86 ea 03 bd
       0.15061721 0.1480487 -0.020646797 -0.03220608
000190 0d 0c 94 bd e0 9c 03 3e be 2f 26 3d 03 ff 42 be
       -0.07228861 0.12852812 0.040572874 -0.19042592
0001a0 a2 ad b5 3d 30 8f a7 3d 16 34 f6 3d 75 06 aa be
       0.088710085 0.08181608 0.12021653 -0.3320805
0001b0 1e dc 23 3d 3b 6b 7d 3e 8b de 7a 3e 16 19 ac 3e
       0.040004842 0.24747936 0.24498956 0.3361289
0001c0 1b 88 e1 3e af 62 3f be 5c 62 ea 3d 13 ff 0f be
       0.44049153 -0.18689989 0.11444542 -0.14062147
0001d0 22 87 e6 3d 95 60 86 be 53 07 82 3e d8 c4 b9 3c
       0.11256243 -0.2624556 0.25396213 0.02267687
0001e0 d8 0a 88 3e 2b 63 6e 3e 40 89 81 bd ad 0f 5f be
       0.26570773 0.23280017 -0.063250065 -0.21783324
0001f0 05 3a d5 bd d5 33 88 be 0e b2 d6 3d d7 4e 35 3e
       -0.10411457 -0.26602045 0.1048318 0.17705856
000200 09 c4 10 bd 2d 7f 5e 3e 24 55 ee 3d a8 0c 4e bd
       -0.035343204 0.21728201 0.11637333 -0.05030504
000210 52 4e 2c 3e 87 1e 6b bc 5e d7 5a 3e 9e f0 9f be
       0.16826752 -0.01435054 0.21371219 -0.31238264
000220 4b 43 78 3d a9 df 41 3e d4 fb 11 3e af 45 0a be
       0.06061105 0.18932976 0.14256221 -0.13503145
000230 9f fc e4 3c 9d 9c 8c 3d 0e f4 0d bf 95 1b 95 be
       0.02795249 0.06865809 -0.5545052 -0.29122606
000240 bb f6 12 3e a7 fd c1 3d eb 80 8f be 9a 99 48 be
       0.14351933 0.094722085 -0.28028044 -0.19589844
000250 25 92 87 be ed 3b fc 3e 03 cc 17 be 4c f1 84 3e
       -0.26478687 0.4926447 -0.14823918 0.25965345
000260 b0 8c c1 3e 52 0e 01 3e 1c 5e a7 3e e5 72 6e be
       0.3780265 0.12603119 0.32688987 -0.23286016
000270 67 30 e1 bd 9c 63 be 3c 42 59 27 3d 99 5f e9 3e
       -0.1099556 0.023240857 0.040856607 0.45580748
000280 71 03 c4 3d 46 08 5f 3e df e7 b6 3e 11 3f 98 be
       0.09570969 0.217805 0.3572378 -0.29735616
000290 af d5 43 3e 77 eb d6 3d 9a 3b 37 be 13 97 1a 3f
       0.19124483 0.1049413 -0.1789383 0.6038677
0002a0 8d b4 5d bc 76 53 d2 3d 5a 40 a0 3e b2 e2 a4 be
       -0.013531816 0.10269825 0.31299096 -0.32204205
0002b0 1f 4b eb 3d 0c eb 14 3d ca fa b4 3d a4 0c d8 3d
       0.114889376 0.03635697 0.08836897 0.10549286
0002c0 5b 15 16 3f 68 9a a5 be e1 26 12 bf 03 1a c8 bd
       0.58626336 -0.32344365 -0.57090575 -0.09770586
0002d0 92 c7 09 bf d3 82 ec bd c2 f3 ed 3e cc ca 5f 3d
       -0.53820145 -0.1154839 0.46475035 0.05463676
0002e0 a7 37 70 3e c3 9f a9 3e c5 21 7a bb a5 24 05 be
       0.2345873 0.331297 -0.00381671 -0.1300226
0002f0 b6 87 7e be 61 aa 88 be 4c b7 51 be 9a 15 1b 3f
       -0.24856457 -0.2669249 -0.20480078 0.60579836
000300 c0 28 42 3e df 42 fe bd 37 cb 93 3d 3b 28 25 3d
       0.18960857 -0.124150984 0.072164945 0.04032157
000310 05 d3 b1 3d e6 bb dd 3e 97 65 15 3e 96 73 45 bd
       0.08682827 0.43307418 0.14589535 -0.048205934
000320 a9 7b ca 3a 24 38 6e bd 5f 20 13 3e 69 a6 9e 3e
       0.001544823 -0.05815901 0.14367817 0.30986336
000330 ef 43 80 be c8 e8 03 3b da 65 3b bf b0 1e ae 3d
       -0.2505183 0.0020127762 -0.7320229 0.08501947
000340 9d 6d 08 3e 98 c2 39 3e 9b cf 87 3c 57 1f 1c 3f
       0.13323064 0.18140638 0.016578486 0.6098532
000350 cf 3c 05 bf 65 eb 58 be b0 6c 53 be 0a 3e d2 be
       -0.5204591 -0.21183546 -0.2064693 -0.41062957
000360 c3 77 f8 bd 82 22 eb bd f2 4a ce 3d 57 e9 9b bd
       -0.12132218 -0.11481191 0.100728884 -0.076128654
000370 9d 82 15 3e a7 49 71 be 77 c2 80 bd 3e 03 7b 3e
       0.14600606 -0.23563252 -0.06287091 0.24512956
000380 ea 63 4b 3e 99 38 a3 3d f9 03 c1 3e 4d b8 c0 3e
       0.19862333 0.079697795 0.37698343 0.3764061
000390 78 fa 8a 3c 60 65 40 3e 4d 13 1d be 65 34 4d 3d
       0.016965136 0.18788671 -0.15339394 0.050098795
0003a0 1a b3 6a 3e e5 57 7e bd 59 fd b6 3c 19 42 f4 3d
       0.22919884 -0.06209554 0.022337602 0.119266696
0003b0 70 a8 d0 3d f9 e9 90 3e 52 cf c7 3e cf 6e 87 3d
       0.10188377 0.28303507 0.3902536 0.06612932
0003c0 0f 5a 1e 3e 69 25 6f be c1 98 b1 be dc 7c e9 bd
       0.15464042 -0.23354115 -0.34686854 -0.11400768
0003d0 14 dd 82 3e d4 27 75 be 72 29 38 3d 0a f9 9d bd
       0.25559294 -0.23940974 0.0449614 -0.07713516
0003e0 57 49 c8 3e 7f b0 69 3e 55 88 9d 3e 2e 9e d0 bc
       0.39118454 0.22821234 0.30768076 -0.025466051
0003f0 18 79 40 be 36 0d 41 3e 47 39 b1 be 94 8c 8d 3e
       -0.18796194 0.18852696 -0.34614012 0.27646315

fc3.bias f4 [4]
000000 25 f4 05 3e fe 49 17 3e 7e 69 25 3c c0 11 73 3e
       0.13081415 0.1477432 0.010095952 0.2373724
